checkpoints/drex_reward_net/DREX-Hopper-v3.pth (torch, 279768 bytes, 7 tensors)

mlp.normalize_input.running_mean f4 [11]
00000000: 36ec b03e a783 96be b635 a0bf 1abf efbe
00000010: bf2f 413d e3f7 a93e c5ba 07be 2766 c1bc
00000020: 0fd0 1abe 36ca 3fbd f469 503d
0.34555215 -0.29397318 -1.2516391 -0.46825486 0.047164675 0.33196935 -0.1325484 -0.02360828
-0.1511843 -0.046823703 0.050882295

mlp.normalize_input.running_var f4 [11]
00000000: 1c96 b53d 354b fb3f fc7e a23e 21cc a73e
00000010: b5f5 ad3e ef19 4f3f 29fe dc3e 2722 3f40
00000020: 1731 6d40 fa8c 5440 5970 6e41
0.08866522 1.9632326 0.31737506 0.32772925 0.33976522 0.80898947 0.4316266 2.9864595
3.7061212 3.3211045 14.902429

mlp.dense0.weight f4 [256, 11]
00000000: da05 51be dd83 8bbe 4e22 653e 5fb9 8bbe
00000010: f392 0c3d 5c27 813e fefe 15be 395f 9abd
00000020: e02a 0e3e 5214 7d3e 5bf8 993b 2114 d53c
00000030: cbf2 95bc cad5 15be 997b 543e d142 65be
00000040: 88d4 8e3e 1b6f 97be 6de9 3f3e dc41 19be
00000050: 3c82 17be ea2e 213e 55cd 09bd e2d4 c43d
00000060: 36ae 60bd 26c9 b9bd f601 41be b20d 263d
00000070: 1234 acbd 4454 09bd d512 773d 5454 363e
00000080: 22d4 533e 0bd9 3dbe 1505 8d3e 76ad d4bc
00000090: 8b53 4fbe c117 f7bd e7b5 eabc 1922 683d
000000a0: 7f8d d63d f097 e93d 4bc5 88be 6049 17be
000000b0: 9ba4 d4bd 3187 6f3d 05f1 16be 1149 84be
000000c0: 33b5 8fbe 5116 8fbc 5ea4 7bbe 85b6 a73b
000000d0: b752 453e e11b 2e3e cfe4 923e a424 0abe
000000e0: eb63 1c3e 5283 723e 8a77 4c3d 9ac5 473e
000000f0: 3663 833e f67f 253d 37d4 9b3e 1fdc 75be
00000100: aed1 273e f1f4 49be 4e28 793e 588a 563e
00000110: c134 6f3e ef4a 9fbc 669f 2b3e 1245 2ebd
00000120: 44c1 cebd dc6c a6bd 5fa8 093e 9104 27be
00000130: a841 533e fcad 44be 1be9 afbd c7ac 723e
00000140: fb92 80be 7adf 273e b5d6 023d 7629 5dbe
00000150: 6d7f 9abe acac 34be 5fd9 5e3e b838 203e
00000160: f4a2 97be 7d8f f9bb 3316 87bd bf28 253e
00000170: 570d 25be 8f3a 363e 33c4 3d3d 0404 04be
00000180: d779 e4bd 699b 6dbe 7caa 02be 4bf7 66bd
00000190: d5f1 483e ba46 56bb 8694 5a3e d47e 3ebe
000001a0: 6e3d 4ebd 76c4 4bbd f02e 4c3d 9a1a 77bd
000001b0: 807c 623e c94c 403d 0e13 753e fdc6 983e
000001c0: 58ce 393e a452 74be 9677 18be 074b 2fbe
000001d0: 9b65 4e3e bcc6 6bbc 80c7 12bc b308 39be
000001e0: efe5 96be 1b68 c13d d60d a7bd 7e83 dbbd
000001f0: f619 553d be65 d1bd a242 be3c 7f72 aa3d
00000200: b63f 01bd fee7 da3b 4954 903e 7f43 68be
00000210: baff 9a3d f88f 243c 1845 8b3e 7616 c03d
00000220: fdc9 703e bf9b 1fbd dc2b cb3d a9f7 2bbe
00000230: 79f8 38be ed0e d73d 6848 a4bd 471d 9b3d
00000240: c2ca 7b3e 0f1d 523e 3d31 573d 34b6 fcbb
00000250: 5d45 673a 08e8 f23d 9d5f 4f3d 1a0d 8cbe
00000260: e693 313e 0bc5 163d d647 bebd f365 563e
00000270: 44aa a23d 152f 32be 9028 43be 8f15 e8bd
00000280: e2bd 363e 79b1 67be 1755 1fbe 0c72 68be
00000290: 363d 703e ebde 9f3d 1e26 3d3e d495 16be
000002a0: 68ad 803e 6708 da3c 5961 433e bfc6 85be
000002b0: 3c2a 47be 394f f0bd 6431 053e bdeb 833e
000002c0: 374c 603e 3e44 813e 89a7 c5bd 4826 f73d
000002d0: b348 ae3b 86a0 b43d 21e0 c1bd 42ac 273e
000002e0: fa56 313e bb1a 3dbd 0931 0abe 56cc 893c
000002f0: 38e3 b73c e4a5 6cbd 3b0b 223c ca9c 693e
00000300: 4d4f 1e3e 6670 093d 76fd a13e f6f4 793e
00000310: 5166 083e b17b 4e3e 305f 2c3e a1fd 803d
00000320: 81d7 9b3e 3bfa 96be c666 db3c 79d1 8abe
00000330: b8bd 75be aa4a 333e 5e29 883d 6e8d 26bd
00000340: 99bb bfbd b5b9 91be 8491 823d 8702 103d
00000350: ebd8 8f3e b152 2ebe 780f f3bc 3590 89be
00000360: 7ee0 35be 7ab6 7dbe 643a a73c 93e2 443e
00000370: 48ef d43d d62e 88be d6f0 56be bfb7 9a3e
00000380: 7695 89be 47b4 bb3d 814a 10be 8825 8dbd
00000390: eee2 5bbe 1a19 80be 0a14 4f3e b890 013e
000003a0: c980 873b 8e7a 153e bdc6 54bc 3459 943e
000003b0: 716d 483e a26d 6f3e 7593 4d3e aac8 8fbe
000003c0: 1ed0 68be 5926 1b3e 4138 3fbe 4072 17be
000003d0: 7462 2bbd ba51 83bd 7867 603e 7944 dabd
000003e0: 42aa 0dbe 4070 97bc 2071 37bc 5441 88be
000003f0: 2902 723d 048c 4ebe 196b d03d bd21 913e
-0.20412388 -0.2724904 0.22376367 -0.27289864 0.03431983 0.2522534 -0.14648053 -0.075376935
0.13883543 0.24714783 0.0046987957 0.026010575 -0.01830425 -0.14632335 0.20750274 -0.2238877
0.27896523 -0.29576954 0.18741389 -0.1496653 -0.14795774 0.15740553 -0.033643086 0.09610917
-0.05485364 -0.09071569 -0.18848404 0.040540405 -0.08408369 -0.033527628 0.060320694 0.17805606
0.20686391 -0.18539827 0.2754294 -0.025961619 -0.20246713 -0.120650776 -0.02865119 0.056673143
0.10476207 0.11405933 -0.26713023 -0.14774084 -0.103829585 0.058478538 -0.14740379 -0.25836995
-0.28067932 -0.017466696 -0.2457442 0.0051181936 0.19269834 0.17002822 0.28690192 -0.1349054
0.1527249 0.23682907 0.04991869 0.19508973 0.2566163 0.040405236 0.30435345 -0.24009751
0.1638858 -0.19722344 0.24331781 0.20951211 0.23359968 -0.01944491 0.16760024 -0.04254634
-0.10095456 -0.08126232 0.13443135 -0.16310336 0.20630515 -0.19206995 -0.08589383 0.23698722
-0.25112137 0.16393843 0.03194304 -0.21597847 -0.30175343 -0.17643994 0.21762608 0.15646636
-0.2961651 -0.007615982 -0.06596031 0.16128825 -0.1611837 0.17795776 0.04632969 -0.12892157
-0.111560516 -0.23203816 -0.12760347 -0.05638818 0.19623502 -0.0032695965 0.2134572 -0.18603069
-0.050351553 -0.049747907 0.04984945 -0.060328104 0.22117805 0.046948228 0.2393305 0.29839316
0.1814512 -0.2385965 -0.14889368 -0.17118464 0.20155947 -0.014390644 -0.008958697 -0.18069725
-0.294723 0.09443685 -0.08156936 -0.107184395 0.05202671 -0.10224484 0.023225132 0.0832262
-0.0315549 0.0066804877 0.28189304 -0.22681998 0.07568307 0.01004409 0.27201152 0.09379284
0.23514552 -0.03896689 0.09920475 -0.16793694 -0.18063535 0.10500894 -0.08021623 0.075739436
0.24589065 0.20518897 0.05253719 -0.00771215 0.00088222866 0.11860663 0.050628293 -0.27353746
0.17341575 0.03680901 -0.09291045 0.20937328 0.07942632 -0.17400773 -0.19058442 -0.11332237
0.17845872 -0.22626294 -0.15559803 -0.22699755 0.2346085 0.0780619 0.18471572 -0.14705592
0.25132298 0.026615335 0.19080104 -0.26128194 -0.19449705 -0.117338605 0.13007122 0.25765792
0.21904074 0.25247377 -0.096510954 0.120678484 0.005318725 0.0881968 -0.09466577 0.16374305
0.17318335 -0.04616807 -0.13495268 0.016821068 0.022447214 -0.057775393 0.009890373 0.22813717
0.15459938 0.033554457 0.31638688 0.24409851 0.1332028 0.20164372 0.16833186 0.06298376
0.30437854 -0.29487786 0.026782405 -0.2711294 -0.23998153 0.17508951 0.06648515 -0.04066222
-0.09361953 -0.28461996 0.06375411 0.03515866 0.28095183 -0.17023732 -0.029670462 -0.26867834
-0.17761418 -0.2477664 0.020413585 0.19227056 0.10397202 -0.26598233 -0.20990309 0.30218312
-0.26871842 0.091652445 -0.14090921 -0.06891924 -0.21473286 -0.2501915 0.20222488 0.12652862
0.0041352254 0.14597532 -0.012986836 0.28974307 0.19572999 0.23381665 0.20075782 -0.28082782
-0.2273564 0.15151347 -0.18673803 -0.14789677 -0.04184194 -0.064120725 0.2191447 -0.106575914
-0.1383448 -0.018486142 -0.011196405 -0.2661234 0.05908409 -0.20170599 0.10176677 0.28346053

mlp.dense0.bias f4 [256]
00000000: ae46 13be 5ad9 573c 4d89 e6bd e4f7 80bd
00000010: 4908 213e ba3f 10be c387 793e f0d3 4ebe
00000020: d306 103e 3dda 93be e106 183e c2a1 943e
00000030: d01d 6ebe f634 323e 1ec5 433e 943b 373e
00000040: 70cf 2bbe eefe 8bbd 03c1 3abe 0eb2 063c
00000050: 264e 923e cf1c 043e 2222 303e 3528 943d
00000060: 5855 91be f20b 5e3e 8098 643e ffea 7dbe
00000070: 2f27 1f3e 5aea c63d f8e3 1abe e550 8bbe
00000080: c40a 92be 6351 803e dd0f d4bd 8df0 22bd
00000090: 75c5 8abd 07d6 7bbe 432e 0dbe 54ec 0dbe
000000a0: 5749 ce3c 06ae 923e a426 9a3c 5af9 423d
000000b0: 036d 77bd 050e e1bd 80c1 603e 71b9 823d
000000c0: ca3d 16be 76c4 2b3e 5b4c 18be 19a8 8d3e
000000d0: 2e14 593c 4c23 8fbe abf0 853d 9018 023e
000000e0: 9f6b 35be 1467 373d 0091 90be 736f 26be
000000f0: 48a7 253e b568 69bd 2cfc b6bd 6139 21be
00000100: 5a63 723d 51fa 7f3e cd56 29be 47af 153e
00000110: 8ebc 95be c41f 173e e1d6 71be d10a 5abe
00000120: 898a dbbd 7a06 83be 412b 83be eeb8 8e3c
00000130: 9de7 95be c59d 0abe 636d 273d d8cb febd
00000140: 775c 783e a193 75bd 010b 02be 5755 023e
00000150: 4e73 35bd bc19 a2bd b23b 8fbe 728f 8a3e
00000160: d95a 673e 244d 853e eae4 793e 3234 29be
00000170: 70eb a3bd 9407 77bd 6e8b 9cbd cb52 fdbd
00000180: fddf 8dbe e1c4 dabd 81b9 903e 901a 943e
00000190: a69d 8a3a fa06 26be 44c2 93be eefe b83d
000001a0: 7031 04be b1a8 1f3e ce1a d5bd be35 66be
000001b0: a489 053e 21bb 36be a791 9d3e d982 e7bd
000001c0: 47bb 933d 6bf5 5f3e c53b 46be 723d 27be
000001d0: 5dce 23be 5868 6d3d 97c4 2dbe ccf3 9bbc
000001e0: 0f56 82bd 0813 8c3e 1bef 57be 17bc a4bc
000001f0: a3f8 433e 87d9 f3bd 2cad bdbc 36d7 803e
00000200: 87c4 f73b c9fe 7a3e 774d 80be 77e8 65be
00000210: 1dd2 63be 193d 3b3e 195b 7a3d 167f 79be
00000220: 8e26 23be 26b5 72bd 1d6c 373e 75b7 bcbd
00000230: dd07 483e 6831 da3d 6aad 66bd 313a acbd
00000240: 82bd 77be e375 15be e785 8cbd 8922 7a3d
00000250: 775e 82bd 28aa 92bb 90f9 8d3e 5df4 7e3e
00000260: 9ca3 523e c603 213e e6db 03be b006 14bd
00000270: 9eca 813e 6f85 2b3a 9db5 263e 55c6 3f3e
00000280: e55f d4bd 6c8a 57bd 67e2 76be 63fd cf3d
00000290: 8b53 953d 613a 24be e1c5 c9bd 4863 4d3e
000002a0: 5da2 47bc 7da3 473d 4feb 8cbe 4b71 3cbe
000002b0: b25b 863e f6e8 0b3e 5686 913e 8226 88be
000002c0: ac57 133e 70d4 0d3e 5b88 85bd d616 693e
000002d0: 6068 873d 7db3 023e 20b3 8b3e 86fc 24bd
000002e0: e89c e7bd 40ef 4ebe 6fe0 d6bc 2326 ff3c
000002f0: 9a6b 1b3d 94ca 9bbe 3bf9 78be cdc0 5b3e
00000300: 05c8 89be 09ea 91be 4f48 993d a01c 13be
00000310: d2c7 843e 8135 7a3e a028 873e 3d61 193e
00000320: 49b6 20be 9b9e 0e3e a75b 23be 39f8 c73d
00000330: 9a57 eebc 7b57 e6bd 4201 593e dcc2 843e
00000340: ca71 693e 39dd 98be 69c0 433e 20aa 1b3d
00000350: 3b5f 403e 29d0 80bd 2d29 52bd dd1d 1cbe
00000360: 560b 543d 33f6 7abd 0022 263e 24b3 8abd
00000370: 9bbf abbc e54b 393e b930 54be 42b8 7cbe
00000380: 6e9b f93d 0388 9c3e 0c5d 0bbe e5c5 bcbd
00000390: b0ec 79be 4370 dc3d 4ec7 2abe 8d6b 68be
000003a0: 836f d03d a343 16be 38bb f1bd a38c b53c
000003b0: 9b7c 61be 0629 9b3e 37dd 32be ff48 acbc
000003c0: 2b99 2d3e bb72 43bd fea8 8fbd 6639 ee3c
000003d0: a7cd ea3c abb7 5b3d 01ab 75be 0f5b 4bbd
000003e0: 22d4 68be d873 0cbe a951 08be 26f3 67be
000003f0: ee13 33be 20f1 05bd fa2e 22bd b92b 14bd
-0.14382431 0.013174379 -0.11256657 -0.062972814 0.15725817 -0.1408681 0.24368195 -0.20198035
0.14065103 -0.2887744 0.14846374 0.2902966 -0.2325356 0.17403015 0.19118163 0.17893821
-0.1677835 -0.06835733 -0.1823769 0.0082211625 0.28575248 0.12901615 0.1720052 0.072342314
-0.28385425 0.21684244 0.22323799 -0.24796675 0.15542291 0.09712668 -0.15126026 -0.27210155
-0.2852384 0.25062093 -0.10354588 -0.03978019 -0.06775943 -0.24593364 -0.13787179 -0.13859683
0.025181456 0.28648394 0.018817253 0.04760108 -0.060406696 -0.10989002 0.21948814 0.063830264
-0.14672008 0.16774163 -0.14872877 0.2766731 0.01324944 -0.27956617 0.065400444 0.12704682
-0.17716835 0.044776037 -0.28235626 -0.16253452 0.16177094 -0.056984622 -0.08934817 -0.15744545
0.05917678 0.24997832 -0.16537018 0.14617644 -0.29245418 0.14758211 -0.23617126 -0.21293189
-0.10719783 -0.2559088 -0.25618938 0.017422166 -0.2927827 -0.13536747 0.040875804 -0.12441224
0.24254023 -0.059955243 -0.1269951 0.12727867 -0.044299416 -0.07915065 -0.2797523 0.27062565
0.2259325 0.26035416 0.2440373 -0.16523817 -0.080038905 -0.06030996 -0.076437816 -0.12369307
-0.27709952 -0.10682083 0.28266528 0.28926516 0.0010575547 -0.16213599 -0.2885915 0.09032999
-0.12909484 0.15591694 -0.10405503 -0.22481439 0.13040787 -0.17844822 0.30775186 -0.11304254
0.07213455 0.21870963 -0.19358738 -0.16332033 -0.1599669 0.057960838 -0.16969524 -0.01903715
-0.063640706 0.2735827 -0.21087305 -0.02010922 0.19137816 -0.119067244 -0.023153864 0.25164193
0.0075612697 0.24511255 -0.250591 -0.2245196 -0.2224812 0.18285026 0.061122034 -0.24364886
-0.15932676 -0.059254788 0.17912336 -0.09214679 0.1953425 0.10653955 -0.056317724 -0.08409537
-0.24193385 -0.14595751 -0.06861477 0.06106809 -0.06365674 -0.0044758506 0.27729464 0.24897905
0.20570225 0.15724096 -0.12876853 -0.03613919 0.25349897 0.00065430155 0.16280217 0.18728001
-0.10369853 -0.052622244 -0.24109803 0.101557516 0.07291325 -0.16037895 -0.098521955 0.20057404
-0.0121847065 0.0487399 -0.27523276 -0.18402593 0.26241833 0.13663086 0.28422803 -0.2659188
0.14388913 0.1385057 -0.06520148 0.22762617 0.06611705 0.12763782 0.272851 -0.040279888
-0.11309224 -0.20208454 -0.026230065 0.031146115 0.037944414 -0.30427992 -0.24313824 0.21460266
-0.26910415 -0.28498867 0.07484495 -0.14366388 0.259337 0.24434473 0.26398182 0.149785
-0.15694536 0.1392769 -0.15952931 0.097641416 -0.029094506 -0.11247154 0.21191886 0.25929916
0.22797313 -0.2985628 0.19116367 0.03800404 0.18786328 -0.062897034 -0.0513088 -0.15245767
0.051768623 -0.06126995 0.16223907 -0.067724496 -0.020965388 0.18095358 -0.20721711 -0.24679664
0.12187849 0.3057252 -0.13609713 -0.09217433 -0.24406695 0.107636 -0.16677591 -0.22697277
0.10177519 -0.14674239 -0.11803287 0.022161787 -0.2202019 0.30304736 -0.174672 -0.021030901
0.1695296 -0.047716837 -0.070146546 0.029080104 0.028662516 0.053641956 -0.23991014 -0.049647387
-0.22737172 -0.13716066 -0.13312401 -0.22651348 -0.17488071 -0.032700658 -0.03959558 -0.03617451

mlp.dense1.weight f4 [256, 256]
00000000: c0f2 32bc 6da1 163c 5a73 6fbd 6721 7bbd
00000010: 83cf 2ebd 0b3e 14bc 001d 5cbd f0d1 78bc
00000020: 6ac9 0fbd 72c5 5c3d 4447 2a3d 4670 43bd
00000030: b77e f33c 7876 863d dc57 62bd cb87 25bc
00000040: e232 9e3c 38d0 313d 853f 3e3d c454 3fbd
00000050: ed0f 1f3c 66e8 0abd e182 5bbd 29d7 4b3d
00000060: ef61 53bd 8863 d5ba 1e73 f13c 8efe b23c
00000070: 645e 073d 7630 303d 1c7f d0bc 9c93 87bd
00000080: 7b96 163d 99a2 5a3d 02e0 fe3c d37e dbbc
00000090: 48f0 55bc 6a51 243d 7e5d 393d ffc7 70bd
000000a0: 9f78 da3c 2209 7f3d 74fe 443d 4c88 4c3d
000000b0: 34cc 53bd dda3 3b3d 4d93 99bc 5f54 493d
000000c0: 7ca0 83bc 9868 0c3d 53a9 b13c aa7d 41bd
000000d0: bf8b 203d 0d56 b2bc 19f0 f13c eb63 46bd
000000e0: f04f b3bc 1658 e5bc 696c 78bc 1fa5 da3c
000000f0: 92ed 103c 9006 28bd b135 683d 0b9a 503d
00000100: 9584 fcbc 6d96 25bd f53e 26bd fbc4 5dbd
00000110: 589b 4cbd 3135 34bd 8617 98bb ff45 593d
00000120: a368 82bd 1571 3a3c 443c 52bd f65b 033d
00000130: 2245 f6bc 10b7 293d 75f3 7e3c 9e22 61bd
00000140: f5e1 533c ea71 28bd 646b 43bd 0917 903b
00000150: 3134 493d bdfc ac3c 9f94 e8bb 40b9 3e3d
00000160: f0bd 993c 7c6d 053d 93b0 76bc 867b a2bc
00000170: 11b3 21bd 5015 1fbd 4d6f 0ebd fd2a 103d
00000180: ac64 2b3d de22 80bc 4834 39bd 86aa 45bd
00000190: 7d54 37bd c08f 16bd f2b5 473d 4ef8 123d
000001a0: ef17 2b3d 3d45 713d 3856 e93b d43b 35bc
000001b0: 08de 6bbd dfb8 383d 9d97 90bc 7ae2 3c3d
000001c0: 6eae e2bc 05d6 603c 60f8 dc3c 5e6d 143d
000001d0: b9ac 74bd a84d 013d e1be 6bbd 24ec c2bc
000001e0: e6ef e53c dd57 b13c f504 383d d0ea 82bc
000001f0: fb28 b3bc f77a 42bd 365f 41bd 7714 7cbd
00000200: e573 3a3d f91b 7d3d 2d74 993c 418a 22bd
00000210: ccd3 8a3b abac 383d 815c 4e3c ec79 093d
00000220: c91d 39bd 6f52 9b3b 9c01 823d 98f6 04bd
00000230: 60cf 22bd 8977 2bbd 856d 323d 79d9 8bbb
00000240: addd a6bc 18de 4abd df6b b8bc 933a 26bd
00000250: 8e23 593d f14e 503c cddd 443d f8a2 553d
00000260: 9040 333a 78fc 8abc 4c7e 16bc 1ba4 ea3c
00000270: b260 0f3d 560b b7bc bd95 17bd b3ec 6f3d
00000280: 1009 d13c 2c63 2abd cd14 1abd 4f78 013d
00000290: c80a 34bd 5594 7cba ca06 28bd 9d9b 84bd
000002a0: d031 5dbd a1e4 b53c a3cc f93c bbf1 ffbb
000002b0: 2611 06bd 96ce 713d ac07 f1bc c9dc a4bb
000002c0: b1a7 633d 1d5e 12bc fc91 103d c43e 54bd
000002d0: 9976 14bd 8113 1fbd a285 3cbd 8003 f7b9
000002e0: 2a0d 59bd d616 34bc e652 45bd 8a4c fc3c
000002f0: 1f24 62bd 0b92 c3bb 0528 733d 2e4a 7bbd
00000300: b4ca 5b3b 31e7 5f3d 2916 0dbd bee4 d23c
00000310: 6b1a 803d 71f3 7c3d 25fd bc3c d88e e4bc
00000320: 6fb6 cb3c fd45 023d f674 59bd 410c 95bc
00000330: 3af8 033d 4e4a 54bd d309 1ebc 5f0e a33c
00000340: 05b7 9fbc 5fde 203d f94a 01bc 9c81 c63b
00000350: 44c3 a03c 2655 663c a4d7 03bd 5efe 56bd
00000360: 312c 313d 9edb 3a3d e649 153d 65ab 583d
00000370: 0158 123a 3c50 5e3d 19bc f2bc 5a1c 6c3c
00000380: 1171 09bb 258c 3b3d 7617 15bd 6450 6bbd
00000390: 9d2c 1dbd 415d 0d3c 2204 fdbc 3c81 a8bb
000003a0: 01f9 58bd eecd 39bd d7e7 2fbc e571 00bc
000003b0: da69 853c 073f adbc ff12 753d c683 423d
000003c0: 9965 173d cf21 a63c a64b e43b dad6 4c3d
000003d0: 8c37 873c 25c5 90bc 27af fdbc 2f79 273c
000003e0: f746 a7bc e976 933b 013b 443d 759c cbbb
000003f0: c647 263d b489 55bd 4750 7f3d 26c1 abbb
-0.010922134 0.00919376 -0.058459617 -0.06131115 -0.042678367 -0.009047995 -0.053738594 -0.015186772
-0.035104193 0.053899236 0.04157187 -0.047714494 0.029723508 0.06565565 -0.05525957 -0.010103176
0.019311372 0.043411463 0.046447296 -0.0467117 0.009708387 -0.03391304 -0.053591613 0.04976574
-0.05160707 -0.0016280273 0.029473837 0.021849897 0.033049002 0.043014966 -0.025451235 -0.06619951
0.036764603 0.05337772 0.031112675 -0.026793873 -0.013057776 0.040116705 0.045255177 -0.05878448
0.026668845 0.06226457 0.048094228 0.04993467 -0.051708415 0.04581057 -0.018746996 0.04915273
-0.016067736 0.034279436 0.021687185 -0.047238983 0.039195772 -0.021769548 0.029533433 -0.048435133
-0.021888703 -0.027996104 -0.015162566 0.026690064 0.008845704 -0.041021883 0.05669183 0.050928157
-0.030824939 -0.04042666 -0.040587384 -0.054142933 -0.049952835 -0.04399604 -0.004641476 0.05304527
-0.06367614 0.0113795 -0.051327005 0.032070123 -0.030062262 0.041434348 0.015560974 -0.054964654
0.01293229 -0.041124262 -0.047709838 0.0043972773 0.04912204 0.021116609 -0.007097795 0.046563387
0.018767327 0.032575116 -0.015056747 -0.019834291 -0.03947741 -0.038838685 -0.034774113 0.035197247
0.041844055 -0.015641626 -0.045215875 -0.048258327 -0.04475831 -0.036758184 0.0487575 0.035881333
0.04177087 0.05890392 0.007120874 -0.011061627 -0.057584792 0.04509818 -0.01765042 0.046114422
-0.027671065 0.013722901 0.026973903 0.036237113 -0.059735034 0.0315682 -0.057555083 -0.023794241
0.028068494 0.021648342 0.044926602 -0.015981108 -0.021870127 -0.04748055 -0.04720994 -0.061542954
0.045520682 0.061794255 0.018732155 -0.03968263 0.004236674 0.045086544 0.012595297 0.03356354
-0.04519442 0.0047400515 0.06347963 -0.032461733 -0.03974855 -0.041862044 0.043561477 -0.004267868
-0.020369375 -0.04952821 -0.022512374 -0.040583204 0.053012423 0.012714134 0.04806309 0.052157372
0.00068379287 -0.01696609 -0.009185385 0.028642705 0.035004325 -0.022344273 -0.037008036 0.058575343
0.025517017 -0.041598484 -0.037617493 0.031608876 -0.043955594 -0.00096351403 -0.0410221 -0.064749934
-0.054002583 0.022203745 0.030493086 -0.007810799 -0.032731198 0.059034906 -0.029422604 -0.0050312025
0.055579845 -0.008933571 0.03529547 -0.05181767 -0.036245916 -0.03883696 -0.04602588 -0.0004711412
-0.05299107 -0.010991773 -0.04817476 0.030798215 -0.05521023 -0.0059683374 0.059364337 -0.06135004
0.0033537569 0.05466384 -0.03444496 0.025743838 0.06255039 0.0617556 0.023069927 -0.027900144
0.024867265 0.031805027 -0.05309006 -0.01819432 0.03221915 -0.051828675 -0.009645897 0.019904314
-0.01949645 0.03927457 -0.00789141 0.006057931 0.01962436 0.014058387 -0.032188073 -0.052488677
0.043255035 0.0456196 0.03644743 0.05289783 0.00055825716 0.054275736 -0.029630708 0.014411056
-0.0020971934 0.04578795 -0.036399327 -0.057449713 -0.038372625 0.0086281905 -0.03088576 -0.005142359
-0.052971844 -0.045362405 -0.010736427 -0.007839655 0.016285826 -0.021148218 0.05983257 0.04748895
0.036962125 0.020279793 0.006967026 0.050009586 0.016505979 -0.01767213 -0.030967308 0.0102217635
-0.02041958 0.004500259 0.047907833 -0.0062137195 0.040595792 -0.052133277 0.062332418 -0.005241531

mlp.dense1.bias f4 [256]
00000000: e877 e4bc 7009 2dba 0f8e 123d 5c73 0fbb
00000010: 7072 3dbd 86ad 523c 136d b4bc 9753 7b3d
00000020: 0301 4e3d 45e9 393d bbbf 5b3d 72c0 c9bc
00000030: 2a07 02bd 0312 80bd 06bd 933c 2594 6dbd
00000040: f8ac 443d ccc4 74bc 111e 77bd 6bd9 ea3c
00000050: 1067 783d a532 533d 64fd d83c 19ed c7bc
00000060: 055f 72bd f1ea 413d 6d19 e9bc d9a8 0d3d
00000070: 981d 8f3c 3c4b 16bd 9090 36bd 033a 03bd
00000080: 1d7b 443d 5f14 5c3d 01cb 563d 8839 363b
00000090: 69b4 103d 9373 3b3a 1a36 5dbd 3d4e ff3c
000000a0: fbac 903b 3fc4 d0bb 69dc 1dbd 6ea9 0f3d
000000b0: 4878 35bd d2c7 843c 8e5a bf3c e2ab ed3c
000000c0: 667e 6abc fc53 013d f525 6fbd fec9 01bd
000000d0: 9490 57bd a65e 543d ad61 ed3b f622 453d
000000e0: b3ba 243d 1117 5e3d 15a1 223d 7af3 283c
000000f0: 0d74 d53c 002a 9a3c bb60 e0bb d941 9dbb
00000100: bf46 873c e88f 79bd 43df d23c 418b eabb
00000110: 4d5e b9bc 68d6 643d cbfc e23c 7be6 d53b
00000120: 51dd 3dbd 0c40 c1bc 2129 2ebd f9f1 01bd
00000130: 2a6f 7bbc 1d80 7b3d a78d 043c 5f44 203d
00000140: f1ea 0a3c b5b8 52bd b80f 933c 7c74 aa39
00000150: c1bb b63c 3c78 693d e7fe 65bd 89fe f13a
00000160: 0f9f c23c 7b5a 5cbd e82a 1a3d 3824 37bd
00000170: a366 d3bb 8e6c 6bbb edde 713c fdba 01bd
00000180: ac4d 09bd 89be a9bc a5e4 34bc 7ab7 333d
00000190: d7c0 223d 5201 42bd 9892 5f3b dcb3 223d
000001a0: e327 373d 1b86 a43c 2ce0 13bc fff4 46bd
000001b0: 8365 65bc f88a 11bd f152 5bbd 4a92 39bd
000001c0: e1d5 723d e02e 033d 3ddf 5ebd 9c37 d9bc
000001d0: 798f 05bd 11de b5bc 2a09 443d add0 33bc
000001e0: 95fb a33b b160 65bd 79a8 a93c 0a10 75bd
000001f0: 8439 6bbd 6ade 5a3c 59a5 21bd af8a 3c3d
00000200: f30d a6bb 35d4 1bbd 22e9 5d3d 9b2f 4fbd
00000210: c61b 63bd fc0b 77bd ada9 3a3d 289f 793d
00000220: a529 0bbc 2f19 f5bc dcbd 3bbb 427d 5b3d
00000230: 7bfa 7c3d 2187 3a3c 24ab 2abd e3e2 dd3c
00000240: 2bd3 81bc 5ee0 40bd a6a1 a93b 29d6 4ebc
00000250: fe53 763d d703 4abd 0a50 0c3d 133a b83c
00000260: e85d 503d d84d 4a3d ad91 ee3c 519e 97ba
00000270: 4f99 4f3d b1a0 233d 2278 69bc b26d 3e3d
00000280: 6297 29bc 2346 5dbd 175c 2dbc 3d41 893d
00000290: f4df 873d b844 e63c ba45 4abb 40b9 85bd
000002a0: 47f2 07bd 58ef c1bc f152 51bd 06c9 603d
000002b0: 0765 5cbc 8bff 033d 9a85 4fbd fe59 aabc
000002c0: e7c7 22bc 6366 7abd bcdb 6e3d 9b23 68bd
000002d0: 9e80 8e3c f187 0a3d dff3 303d 38c6 6abd
000002e0: 9d43 87bc 4b3c 3d3c 7090 d7bc 21d5 593d
000002f0: fcc6 ff3c 6702 f6bb 94ca 1a3d c768 5d3d
00000300: fb31 17bc 19a7 603d 158b 363d 10bf d43c
00000310: 0e7b 44bd 6ab4 11bd 9bbe 303d bce2 5cbd
00000320: 91ad e23c de9c 333d 0941 cabc 0970 1b3d
00000330: aa51 5dbd c89c 65bd 412e eb3c 855c 88bc
00000340: 4977 75bd 04bd 9fbc 488a 20bd 8f88 bebc
00000350: cc68 843c 560e 13bd 5bbe 0d3d 2ddb 593d
00000360: 91df b23c 073a f8bb 75ca 0ebd 4a3b 9cbc
00000370: 3a85 2cbd 64cf 7cbd 42f9 f33c b4b5 833c
00000380: b2e9 9fbc 77fc c03b 922c 8a3d 3073 7ebd
00000390: 523c 363d 510c 18bd af28 743d f3a4 97bc
000003a0: adea 99bc f46c 4fbc 99e4 473d 9ccd 233c
000003b0: b4f9 843c 9370 363c c98b 0f3d 74c1 403d
000003c0: dccd 063d d3bb 1b3c cc0c 14bd 92e2 723c
000003d0: e3f3 253d b8bc 28bd 9196 ab3b 0684 2bbc
000003e0: 9106 4c3d ca1c 24bd 234d 653d 1202 fe3c
000003f0: 847f fd3c 164d f9bb 6830 2c3c 16d3 8dbb
-0.027889207 -0.00066008326 0.03578001 -0.0021888828 -0.046251714 0.012858754 -0.022024667 0.061359014
0.050293934 0.04538848 0.053649645 -0.024627898 -0.031745113 -0.062534355 0.01803447 -0.05800261
0.04801652 -0.014939498 -0.060331408 0.028668126 0.060645163 0.05156197 0.026488014 -0.02440505
-0.05917265 0.0473432 -0.028454507 0.034584854 0.017470166 -0.036692843 -0.04457146 -0.032037746
0.047968972 0.053730365 0.052439693 0.0027805287 0.035328303 0.0007150706 -0.054006673 0.031165237
0.004415152 -0.0063710506 -0.038540278 0.03507369 -0.044304162 0.016208563 0.02335861 0.029012624
-0.014312362 0.031574234 -0.058385808 -0.031686775 -0.052628115 0.051848076 0.00724431 0.048129044
0.040217113 0.054221217 0.0397044 0.010311956 0.026056314 0.018818855 -0.0068474687 -0.0047991094
0.016513227 -0.060928255 0.025741225 -0.0071577136 -0.022627974 0.055868536 0.027708432 0.0065277196
-0.046353642 -0.02359011 -0.042519692 -0.031724904 -0.015346328 0.061401475 0.008090413 0.039127704
0.008478866 -0.05144568 0.017951831 0.00032511714 0.022306325 0.05699943 -0.056151297 0.0018462698
0.023757486 -0.053797226 0.037638575 -0.044712275 -0.0064514442 -0.0035922858 0.014762622 -0.031672467
-0.03352134 -0.020720737 -0.011040841 0.04387615 0.039734688 -0.04736454 0.0034114476 0.03972231
0.044715773 0.020083478 -0.009025615 -0.04857349 -0.014001253 -0.03553292 -0.053545896 -0.045305528
0.059286002 0.032027125 -0.054412115 -0.026515774 -0.03260753 -0.022200616 0.047860302 -0.010975045
0.005004356 -0.056000415 0.020710217 -0.05982975 -0.057427898 0.013358692 -0.03946433 0.046030696
-0.005067581 -0.038044173 0.05417741 -0.05058251 -0.05544641 -0.060314164 0.04557197 0.0609428
-0.008493816 -0.029919235 -0.00286471 0.053586252 0.061762314 0.011384756 -0.04166712 0.027085727
-0.015847763 -0.047088973 0.0051767407 -0.012624302 0.060138695 -0.04932007 0.03425602 0.02248863
0.050870806 0.049390644 0.029122198 -0.0011567568 0.050683316 0.03994817 -0.014249833 0.046491332
-0.010351034 -0.054021966 -0.010581038 0.06701896 0.066345125 0.02810894 -0.0030864314 -0.06529474
-0.033190038 -0.023673698 -0.05110449 0.05487921 -0.013451821 0.032226127 -0.05066452 -0.020794865
-0.009935356 -0.0611328 0.058315024 -0.05667458 0.017395314 0.03382105 0.043201324 -0.057317942
-0.016511733 0.0115500195 -0.02631399 0.05318177 0.031222813 -0.0075076106 0.03779085 0.054055
-0.009228225 0.054846857 0.044566233 0.025970012 -0.047968917 -0.035572447 0.043150526 -0.05392717
0.027670654 0.043850772 -0.024689214 0.037948642 -0.05403296 -0.05605772 0.028708579 -0.01664568
-0.059928212 -0.01949931 -0.039194375 -0.023258476 0.016163252 -0.035902344 0.034605365 0.053187538
0.02183512 -0.007575277 -0.034861047 -0.01907124 -0.042119242 -0.06172122 0.029781941 0.016077854
-0.019520614 0.005889471 0.06746782 -0.06212157 0.04449112 -0.03712112 0.05960911 -0.018511271
-0.01878866 -0.012660254 0.048801992 0.009997752 0.016232349 0.011135238 0.03504542 0.04705949
0.032911167 0.00950523 -0.036145017 0.014824526 0.04051579 -0.0411956 0.005236455 -0.010468489
0.04981095 -0.040066518 0.055981766 0.031006847 0.030944593 -0.0076080663 0.010509588 -0.004328142

mlp.dense_final.weight f4 [1, 256]
00000000: cc54 1b3c a3ce 41bd 24a8 5cbd 8836 593d
00000010: 0102 07bd c628 87bd af10 2b3c d2ca 123d
00000020: 30b4 c83c 432e 8a3d 3e5f 57bb 8c0f 743d
00000030: ba67 85bd ee28 693d 563a a2bb 7b89 5e3d
00000040: 08b7 fcbc 5ff2 ea3c 632f 1a3d 435d 28bc
00000050: d58e 27bd 8388 3e3d 6ecf c43c c3cb 02bd
00000060: aed0 603c 92b5 2a3d 09d2 a1bc 10f3 8e39
00000070: 47c7 18bd 48fd 45bc 63fb 3ebd 948e c3bc
00000080: 07e0 86bc ce36 cabc 29b7 79bd eef4 1bbc
00000090: 9caa 5c3c c7af 11bd 4135 ebbc bc06 54bd
000000a0: daff 51bd 6678 d13c 555d 3abd 009c a63c
000000b0: 8212 e1bc 82d3 fcbc 219f c63b 4735 113d
000000c0: 5f57 16bd 8cc7 43bd 4834 d7bb 103f bcbc
000000d0: 06d2 81bd 4f7e 8b3d f63b 84bd ab6c 823d
000000e0: 569d 54bd 8553 7c3c ca3c 89bd 7fd2 5fbd
000000f0: 9b6a 053d a356 b2bc bc5e b03c fbb0 49bd
00000100: b2d3 8c3c af4a 52bd 0690 26bc d3bc 31bd
00000110: 4f84 eabc 5ae6 11bd bdd4 423d 1c67 743d
00000120: 9f68 2ebd 8e3a 71bd d59e 29bd 7121 0dbd
00000130: 4a3b 0cbd 1124 43bd 1176 8dbc 3575 22bd
00000140: b028 fa3c 5b84 963c 9153 31bd 03e7 7abd
00000150: 9d81 aabc 9ca3 223c 7502 383d 407a 38bd
00000160: 5ceb cfbc cfbb e0bc 959a 0c3c 0929 69bc
00000170: c081 ff3b eddf 193d 97cc b1bc fcca 0abd
00000180: 40ee 25bd b870 7cbd b338 753d ccae 7b3d
00000190: 6af1 5e3d 0e05 343c 957d 9f3d bebb d73c
000001a0: e4e5 543b 393f 393d 1bab 75bd 308d c5bc
000001b0: c489 703d 582d 2b3c bc14 4b3c e508 76bc
000001c0: d70d 7ebd 6105 53bd 00a1 b7bc 6264 673b
000001d0: 247c 65bd aec6 473d c1ea 9f3c 2898 68bd
000001e0: a16a f73c 06d6 4bbd 0515 c33b 8250 093c
000001f0: d903 21bd d583 65bc f34f f2bc eff9 e53c
00000200: f514 803d e92d 84bc e2c0 13bd fdae fb3c
00000210: 926e 8ebc 7879 6b3d 1802 e93c 1035 5b3d
00000220: 177e 9dbc 1d4f d13c b3de 90bd 5c07 06bd
00000230: 4bba 023c 2b87 483d 5605 96bd 3015 11bd
00000240: 7665 08bd 616a 1bbd 9d5b 5b3d a223 50bd
00000250: db3c 48bd 6aac 303d 0cec 4c3c c071 453d
00000260: d841 69bd 6b58 423d f11b 8fbd 081f 503d
00000270: 11d7 3fbd 43f4 3a3d af22 73bd b0f9 79bd
00000280: 3423 af3b a068 15bd 4499 84bd 2030 563d
00000290: cbd7 6c3d a204 44bd 47bc 2e3d 4477 4d3d
000002a0: b342 7cbd beff c4bc 0427 db3c 4055 823c
000002b0: cf3e 09bd a03a 053d 9a98 d0bc 6c5b 78bd
000002c0: 6a50 a43c 9918 553d a24c 05bd 47ca ebbc
000002d0: 5dbf 1b3c 4ba2 d53c 1bd9 2abd 43f7 913c
000002e0: ca61 ffbc 5788 7a3c 444e 61bc b7e3 07bc
000002f0: 76ff 1fbc bd76 013d c376 5abc 085f b6bc
00000300: 3836 47bd 5c71 31bd a0ae 263d a883 f43c
00000310: 42d5 39bd f6b6 19bd ae9e 83bd 4934 803d
00000320: d348 473b ba54 603c 919f 313d b6b7 d33c
00000330: c923 583d ae65 253d d27d 343d 6d14 55bd
00000340: bea1 82bd 8951 5dbc 3fc7 83bd f0bb 2abd
00000350: 2901 af3c 80c9 353d 3a9a abbc 902e e4bc
00000360: 1568 37bc 2eeb 103c 4a16 90bd 38bc 32bd
00000370: b3cd 2c3d 15b9 84bc d6c8 30bd 6012 1c3d
00000380: 5cb7 36bc 9c33 7b3c 9956 3f3c b74b 603d
00000390: 3eda 45bd 8989 783d b2d9 653d 05d1 523c
000003a0: c7e8 6a3c a570 c4bb e25f e6bc 4f39 a23c
000003b0: 92e1 053d a71c 55bd a0cc 65bd 2a05 19bd
000003c0: da40 813b c2e2 d2bc f868 55bd 57b9 f6bc
000003d0: 5392 473d 0637 4e3b 413b 933c 27d4 02bd
000003e0: 8461 ffbc 0d06 f0bc f509 103d e730 a73c
000003f0: 7da2 633c 01ac 05bd 19bf 45bd 64a2 d63c
0.009480666 -0.047316205 -0.05387129 0.05303052 -0.032960895 -0.06599574 0.010440989 0.035837956
0.024499983 0.06747105 -0.0032863165 0.05958514 -0.06513925 0.0569238 -0.004950802 0.05433033
-0.030848995 0.028680025 0.037642848 -0.010276142 -0.0409077 0.046516906 0.024024691 -0.031932604
0.013721628 0.041677065 -0.019753473 0.00027265446 -0.03729942 -0.012084313 -0.04662646 -0.023871697
-0.016464246 -0.024684336 -0.06096569 -0.009518845 0.013468411 -0.035568025 -0.028711917 -0.051764235
-0.05126939 0.025570106 -0.045499165 0.020338058 -0.027474646 -0.030862574 0.00606145 0.0354512
-0.036704417 -0.047797725 -0.0065675117 -0.02297929 -0.06338887 0.06811201 -0.06456749 0.06368383
-0.05190786 0.015400772 -0.06701048 -0.054644104 0.03257237 -0.021769827 0.021529548 -0.049241047
0.017190788 -0.051340755 -0.010166174 -0.043392967 -0.028627543 -0.03562007 0.047566164 0.059668645
-0.042580243 -0.058893733 -0.04141124 -0.03445572 -0.03423623 -0.047641817 -0.017268213 -0.03966256
0.03053698 0.018373659 -0.043292586 -0.061255466 -0.020813758 0.009926703 0.04492422 -0.04503846
-0.025380783 -0.027433304 0.008581777 -0.014230975 0.00779745 0.037567068 -0.021704001 -0.033884987
-0.040510416 -0.061630934 0.059868526 0.061445996 0.05442945 0.010987533 0.07787625 0.02633464
0.0032485658 0.04522631 -0.059977632 -0.024115175 0.058725134 0.0104478225 0.01239508 -0.015016769
-0.062024917 -0.0515188 -0.022415638 0.0035307636 -0.056026593 0.04877346 0.01952112 -0.056785733
0.030202212 -0.049764656 0.0059534335 0.008381011 -0.03931031 -0.014008482 -0.029579138 0.02807328
0.06253997 -0.016135173 -0.03607262 0.03072309 -0.017386708 0.05748889 0.028443381 0.0535174
-0.019225163 0.02555042 -0.070737265 -0.032721862 0.007978986 0.04895703 -0.073252365 -0.035420597
-0.033299886 -0.037943248 0.053554166 -0.050815232 -0.04888616 0.043133177 0.01250745 0.048204184
-0.05694756 0.047447603 -0.06987751 0.050810844 -0.046835963 0.045643102 -0.05935925 -0.061029136
0.0053447727 -0.03647673 -0.064745456 0.05229199 0.057822984 -0.04785598 0.042660024 0.05016257
-0.061587047 -0.024047729 0.026752003 0.015909791 -0.033507165 0.032526612 -0.025463391 -0.06063406
0.020057876 0.05202541 -0.032543786 -0.028782977 0.009506074 0.026078364 -0.041710954 0.017818099
-0.03117456 0.015291295 -0.01375157 -0.008294038 -0.0097654965 0.03160738 -0.013333979 -0.022262111
-0.04863569 -0.043321 0.04069388 0.029847935 -0.045369394 -0.037528 -0.0642675 0.062599726
0.0030408397 0.013692075 0.043365065 0.025844436 0.052768502 0.040380172 0.044065304 -0.052021433
-0.06378506 -0.013508209 -0.064344876 -0.041683137 0.021362858 0.04438162 -0.020947564 -0.027854234
-0.011194249 0.008845134 -0.07035501 -0.04363653 0.042188358 -0.016201535 -0.043160282 0.03810346
-0.011152115 0.015332129 0.011678361 0.054759707 -0.048303835 0.06067804 0.056115814 0.012867217
0.014337725 -0.0059948736 -0.028121892 0.019802717 0.032685824 -0.052029278 -0.05610335 -0.03735844
0.0039444985 -0.025742892 -0.05210206 -0.030117674 0.04872353 0.0031465902 0.01797259 -0.031940605
-0.031174429 -0.02929976 0.035165746 0.02040906 0.013893721 -0.03263474 -0.048277948 0.02620048
