checkpoints/drex_reward_net/DREX-HalfCheetah-v3.pth (torch, 286095 bytes, 7 tensors)

mlp.normalize_input.running_mean f4 [17]
00000000: ed58 01be b0fa 3e3f ebb1 98b9 9221 06bd
00000010: 05c6 9bbb e625 fe3d 6e3a 1e3d 6459 823c
00000020: 7805 923e c248 45bc 78f5 0a3c 2b03 933c
00000030: edff 8cbd f56a 213d f253 e13c cb7f 893d
00000040: 6fcc 8c3c
-0.12631579 0.7460127 -0.00029124258 -0.03274686 -0.0047538304 0.12409572 0.03862994 0.015911765
0.28519797 -0.012041273 0.008481376 0.017945847 -0.068847515 0.039408643 0.027505849 0.06713828
0.017187325

mlp.normalize_input.running_var f4 [17]
00000000: 6fc1 e73c b44a 863f afaa 883d 0a6a 9b3d
00000010: 6d2b 9d3d 6a58 043e 27e6 c33d 71f7 a33d
00000020: 2626 233f 4d28 173f 3684 1f40 9148 0142
00000030: 6934 3142 9f03 5b42 6721 3142 26fe 6442
00000040: c212 0d42
0.028290479 1.0491548 0.0667318 0.07588585 0.076742984 0.12924352 0.095653825 0.0800618
0.63730085 0.5904587 2.4924445 32.320866 44.30118 54.753536 44.28262 57.24819
35.26832

mlp.dense0.weight f4 [256, 17]
00000000: 7a97 f9bd e2f6 ddbd 30b6 a73d 5e5d 273e
00000010: 2dee 073d b512 7fbe b3b2 a13d e9e7 4dbe
00000020: b438 48bd e09a 40be 7a73 5cbe e362 fdbd
00000030: 88f0 10be 4ec2 ca3d 6175 f0bd 5524 043d
00000040: 8535 c1bc 0b8f 793e ec13 bd3d 3bea 303e
00000050: 55e3 1cbe 6ef4 59be 977a 533e f6ae 86bb
00000060: 473e 39be ccfb 2e3e 91bc 54be 0aa6 ddbd
00000070: b197 f4bd 3f31 99bd b198 6ebe 37be 593e
00000080: e5b9 b0bd 22f4 903c 5c2d 673e be69 5c3e
00000090: c892 003b 8ecd 43bd dbd2 0cbb e9b5 2b3e
000000a0: 38f6 0d3e a126 2b3e 8f2a a93d 3cf6 17be
000000b0: 2923 0bbd 494f 68be 4dac b63d 0580 703c
000000c0: 0d92 7a3c 7604 6b3e 3259 49bb d49c cf3c
000000d0: 4f08 133d ff44 a93b 02b1 70bd 648b 11bc
000000e0: 340c 29bc 2dc4 6cbe 861d 2dbd 24ed 9bbd
000000f0: e1cb 343d e6e0 4abe 224f 9fbd dc9e dfbd
00000100: 0b49 943b 0fa9 d3bb 4b3d c23d a45e 77be
00000110: 7a5e bdbd 18e4 0fbe 16af e13d fe45 6abe
00000120: 1486 b23d bf54 4a3e 969e 9ebc 60b5 17be
00000130: efe2 163e dbea f2bd 88dd 893d 5ec2 a2bd
00000140: 7ac6 40be aaca 66be 3cb2 01be f11a 37be
00000150: eb58 503e e4ea 2cbe 17e4 47be 89ff 743d
00000160: a5d6 263e 595c 6f3c 6632 0cbd 0c96 4bbe
00000170: 6554 78be 2051 01be 0bf5 083e 64c8 80bd
00000180: 52f7 383e 939a 6abe 3e51 bfbd 4030 f43d
00000190: 591e 46bd 7729 553e 131a 393e 0fb0 c33d
000001a0: b7d5 aa3d 3f0e 45be 3990 a13d d390 b2ba
000001b0: d9f2 84ba 67cc 3dbd 1f1f 3bbd 414f 3f3e
000001c0: a934 063d cd4f cc3d 2cf9 793e d4b0 20be
000001d0: 7f95 4ebb 7865 51be 346d 56bd 6995 e73d
000001e0: 956e 8ebd 062c 34be 3e51 73be 5e4e 713e
000001f0: db64 35be da39 46be df4e 9a3d d674 093e
00000200: 55c3 56be ba7b 04bd 9c1f dfbd a82e 963d
00000210: ccbc f5bd 055c 7c3d 0149 1abd 9cd5 5f3d
00000220: a27a 063e 346e 2c3e e62a f4bd aa46 233d
00000230: 5c58 f7bd cd17 8f3d 4c66 493c efce 893d
00000240: f437 a2bd 7d0e 303e 9a4e d23d d725 793d
00000250: 1d35 f43b 3752 4bbd 0f9f 283e 7c38 0a3e
00000260: a766 cd3c 8dad 66be a53a 1dbe 3e10 9ebd
00000270: 6eee b73d cf47 2f3c f0b7 343d dd3d 843d
00000280: 63ad 7d3e b243 4f3d 8ec7 373d ab7a c03d
00000290: 54c9 1a3d f8f2 073e b073 673e 0a94 46be
000002a0: 1dfb 3ebe d8ca d439 7fd0 1c3e 4b20 303e
000002b0: 6b3a 8cbd bb58 c23d 8cc7 173d 5955 debd
000002c0: d9a5 adbc d521 433e 5fc1 733b 00ce de3d
000002d0: c4ef 2c3e e154 54be 8d72 7abe bdd8 2a3d
000002e0: 1e34 86bd 7f63 623e cb00 ec3d eb5e 82bd
000002f0: 6045 1bbd 361a 02be bf2f 52be 53c4 9c3d
00000300: 7103 363e b4f3 233e d98c 55be e159 5abc
00000310: 87e1 df3c 6b9c bcbc d80d 873d c4cd 9b3d
00000320: 6e2f a5bd 68d9 573d 2eb6 123e 0f7c 233e
00000330: b6e5 13be 66a0 60be 72d2 4cbe 25bb 35be
00000340: 72da e0bc 4c36 213d c09f 653e 1875 22be
00000350: 93b8 05be 010d f83d a8c6 553e a63f 2abe
00000360: 122e 2d3c 9458 32be fa56 7bbe 7a3b ae3c
00000370: 9c11 87bd 6e84 f9bd 2403 11bd 465e 1bba
00000380: 2923 04be b1de 693e c46e 35be 3460 d33d
00000390: c281 483e bc03 d7bd 39fe 05be 4d19 11bd
000003a0: 1504 843d eeab 443e 727f 6a3e 21e1 dbbd
000003b0: 3c7a 63be bf6c 583e 78de 83bc 5c69 ae3d
000003c0: b9d9 b2bd 3dca 9dbd 877d 72be 6159 dcbb
000003d0: 7bcf 13be 9a18 8bbd 4565 2dbd e326 1e3e
000003e0: f5d1 0dbe b61b f93d a605 c33c ff91 cfbd
000003f0: 5e4a 4d3e 0109 4e3e a953 e93d 218f b9bd
-0.12187095 -0.10838105 0.081890464 0.1634421 0.033186127 -0.2490948 0.07895412 -0.20107998
-0.0488822 -0.1880908 -0.21528426 -0.12372377 -0.14154255 0.09900342 -0.11741138 0.03226121
-0.02358509 0.24370973 0.092323154 0.17276852 -0.15321095 -0.21284649 0.20652233 -0.0041102124
-0.18090163 0.1708824 -0.20775057 -0.10822685 -0.11942995 -0.07480096 -0.23300435 0.21263967
-0.086292066 0.017694537 0.22575897 0.21524712 0.0019618738 -0.047803454 -0.0021487984 0.16768612
0.13863456 0.16713955 0.082600705 -0.14840025 -0.03396908 -0.22686495 0.089195825 0.01467896
0.01529361 0.2295092 -0.003072333 0.025343336 0.035896596 0.0051656957 -0.058762558 -0.008883331
-0.010317851 -0.2312171 -0.042264484 -0.0761359 0.044139747 -0.19812354 -0.07778765 -0.10918972
0.004525309 -0.0064593623 0.09484347 -0.24157196 -0.092465356 -0.14051855 0.11019723 -0.22878262
0.087169796 0.1975889 -0.019362729 -0.14815283 0.14735006 -0.118612014 0.06731707 -0.07947229
-0.18825713 -0.22538248 -0.12665647 -0.17881371 0.2034642 -0.16886479 -0.19520603 0.05981401
0.16292818 0.01460942 -0.03422775 -0.19881457 -0.24250944 -0.12628603 0.13374726 -0.062882215
0.18063095 -0.22910528 -0.093416676 0.119232655 -0.048368786 0.20816599 0.18076353 0.09555065
0.08341544 -0.19243716 0.078888364 -0.0013623483 -0.0010143175 -0.04633751 -0.045683976 0.18682577
0.032765064 0.09976158 0.24411458 -0.15692455 -0.0031522212 -0.20448864 -0.052350238 0.113077946
-0.069546856 -0.17594919 -0.2376146 0.23565051 -0.17714255 -0.19358006 0.07534575 0.13423476
-0.20972951 -0.032344557 -0.10894701 0.07333118 -0.11998901 0.061611194 -0.03766728 0.054647073
0.13132718 0.16838914 -0.11922245 0.039862312 -0.120774 0.069869615 0.012292456 0.067289226
-0.079208285 0.17193027 0.10268898 0.060827103 0.0074526207 -0.049638953 0.16466926 0.1349811
0.025073363 -0.22527142 -0.15354402 -0.07717942 0.08981024 0.010698273 0.04412073 0.06457112
0.24773173 0.05060167 0.044868045 0.09398397 0.037789658 0.13276279 0.22602725 -0.1939241
-0.1865048 0.0004058692 0.1531391 0.17199819 -0.0684708 0.0948958 0.037055537 -0.108561225
-0.021197246 0.19055875 0.0037194116 0.10879135 0.16888338 -0.20735504 -0.2445776 0.041710604
-0.06552909 0.22108267 0.11523589 -0.063657604 -0.037907958 -0.12705311 -0.20526026 0.076546334
0.1777475 0.16010934 -0.2085451 -0.013327093 0.02732922 -0.023023805 0.06594437 0.07607606
-0.08065687 0.05269757 0.14327309 0.15965293 -0.14443097 -0.21936187 -0.20002154 -0.17747171
-0.027447913 0.039358422 0.22424221 -0.1586498 -0.1305869 0.12111855 0.20876563 -0.16625842
0.010570066 -0.17416602 -0.24544898 0.021268595 -0.065951556 -0.12183462 -0.035403386 -0.00059268286
-0.12904038 0.22838856 -0.17718035 0.10321084 0.19580749 -0.10498759 -0.1308526 -0.03542452
0.06446091 0.19206211 0.22900179 -0.10736299 -0.22214597 0.21135233 -0.016097292 0.085161895
-0.087329336 -0.077045895 -0.23680697 -0.006724522 -0.14434616 -0.06791802 -0.042332906 0.15444522
-0.13849624 0.121634886 0.023806404 -0.101352684 0.200479 0.20120622 0.1139291 -0.09060503

mlp.dense0.bias f4 [256]
00000000: 6870 4b3e 8d00 713e e82f 48be 7201 033e
00000010: 2628 59bc fe5c f53d e546 763e fd08 6f3d
00000020: e7cc 47bd b542 cfbd 4c17 16be 59b8 293e
00000030: 7709 773d 52b7 b43d 5c07 53be e300 25be
00000040: 2e14 603d 6786 35be 4e65 3e3e a836 66be
00000050: c93b 1b3e ddc3 d4bd 066d 7a3e 37bc e33d
00000060: d975 0f3e 561d 41be b37d 203e fdae 40be
00000070: f01d 4d3e fece 493e bc4c 39bd 6f1f 47be
00000080: 72e0 0ebd 91e4 023c 5c3d 81bd 1895 90bc
00000090: c3fe 3bbe 44a7 37be 8cae fabd fd37 083e
000000a0: 589a c43d 631e 1dbe e730 14be db69 0ebe
000000b0: 6f4f f13d 4390 a3bd 698f 2fbe a2b8 603e
000000c0: fb7f 43be e4d7 1a3e 332c 533e 0c69 8bbc
000000d0: fc5c 5f3d d1f4 c63c a374 e53d 7c9f e2bd
000000e0: 06fc 6dbe b292 06be c3ad eebd 00b6 80bd
000000f0: 5a9d aabd 9720 613e 6f0b 463e 5748 453e
00000100: 55dd 4b3e 4702 35be 9fd3 57be 0029 c73c
00000110: 03f1 1cbd 4ecf f33d 9485 5a3e ee1a 57be
00000120: 27fd 76bd ffe6 c73c 7bdd 32bd f2c7 0dbd
00000130: d04e 9f3c 0f6e 923d 4598 24bd 1108 763e
00000140: 3389 33be b8e8 24be e3ca 3ebe 4d04 96bd
00000150: 5959 c23d 1695 f6bd bbd7 7c3d 9ddf 913a
00000160: 8d59 38bd 55a9 5e3e 54ff 49bd 689b 6a3e
00000170: 5de8 103e 0930 283e b59f 5c3e b1c2 c83c
00000180: a529 e3bd bd69 163e 4661 f03c 9554 e3bd
00000190: 282e 6f3e 04b8 c1bd 49c2 cbbd d7a5 67bd
000001a0: 7af9 4dbe 43f4 3b3e 10ac e2bd 2630 1dbe
000001b0: 0e2e 2fbe 7fe6 59be d07c 333e c5cc d93d
000001c0: 80e9 683e f836 11be bf47 2ebe a4ee 84bd
000001d0: be1f bdbd a3b5 11be d3ef 503e 2a3e 653e
000001e0: cba5 7d3e 2c79 49bc 2d01 afbd 551e 513e
000001f0: fb69 973d c6ae c33b 88e7 1a3e 72cc 52be
00000200: e67c 64be a797 383d 4802 073e d74d 3e3d
00000210: afe0 853d 2d2e 0fbd 7dee 073e 7a60 3a3d
00000220: 1a7b 2fbc 4890 0a3e 7a52 c83d 0266 5dbe
00000230: 02d2 643c cb07 953d e82f a73d 6944 11be
00000240: 5604 743b ac27 98bd 8279 dabd 1ee8 b73d
00000250: db90 0b3d a5c5 4bbd b9c5 5b3e 7cdc 743d
00000260: 343c e4bc d4ca 60be 4742 783d f14b 0d3e
00000270: 96da 1a3d 9ca3 df3c 6b9e 06be fc0e 27bd
00000280: 1ba9 da3d 6697 b4bd 2c9a 253e 1107 183d
00000290: 9cf2 8ebd af0b 15bd fd82 d13d 41d3 623d
000002a0: 6ac6 37bc cc23 543e 2210 f73d 30d4 913d
000002b0: afea 37be d54e 23be 8d2e 0e3e 2d2e d5bb
000002c0: d725 6f3e 0ad2 b2bd 41b3 e03c acce 843d
000002d0: c693 0c3e e814 18bd 20b7 0e3e da6c 673c
000002e0: 9c30 d7bc dd73 75be 36d5 d0bc 32fc 683c
000002f0: 95e5 7b3e f829 6a3e c9ed 2a3e 953c 28be
00000300: e5fd f03d 1e96 163e 86fd b1bc b91f 8e3d
00000310: 9c66 593e cbd1 c83c 11db 1a3e 9284 6ebd
00000320: 6982 60be 84f7 dc3b 8ec1 2dbe 2e64 e5bc
00000330: 7e4d dd3d e9ae b63d b4f0 063e 66b2 24be
00000340: 1004 24bc cf27 353e d71c 49be 45c3 473e
00000350: 402f d43d d8a0 443e 38b2 3d3e e29f 43be
00000360: 5295 4bbd 73a1 52bb 2bb2 9c3c 54a6 bbbc
00000370: 5cb6 483e 5cce 25be 20fb 7d3e 19fc 0fbe
00000380: 85af 84bd 5df9 11be 23dd 0f3e fa29 1dbe
00000390: 4cbf 6c3e 7661 523e fde3 0e3e 6e73 2b3e
000003a0: cef4 89bd d6b2 10be 2ec7 543e 199c 51bd
000003b0: 9d26 4f3e 97d5 bcbc 861b 5f3e 6775 85bd
000003c0: 61e3 683e a10f 323d e315 0d3e 6cc0 663e
000003d0: a592 b13d d08f 96bd 99bf cd3d c3f3 91bd
000003e0: 1502 f5bd 90b7 e5bc 618e 45bc 076c e13d
000003f0: 99f4 4bbb 24c7 3bbe 61ca 073e b930 f7bd
0.19867098 0.23535366 -0.19549525 0.1279352 -0.013254201 0.119806275 0.24050482 0.05835818
-0.048779394 -0.10120145 -0.14657325 0.1657423 0.06031176 0.08824028 -0.20608276 -0.1611362
0.054706745 -0.17727052 0.18593332 -0.22481787 0.15159525 -0.103889205 0.24455652 0.111198835
0.14009799 -0.18858847 0.1567295 -0.18816753 0.20030951 0.19707868 -0.045239195 -0.19445585
-0.034882016 0.007989065 -0.063105315 -0.017649218 -0.18358903 -0.179349 -0.122403234 0.13302608
0.09599751 -0.15343623 -0.1447178 -0.13907568 0.11782729 -0.079865 -0.1714455 0.21945432
-0.1909179 0.15121418 0.2062233 -0.017017864 0.054532036 0.02428666 0.11203887 -0.110655755
-0.2324067 -0.13141897 -0.11654236 -0.06284714 -0.08330794 0.21985088 0.19340299 0.19265877
0.1990865 -0.1767665 -0.21076821 0.024311543 -0.038315784 0.119047746 0.21340019 -0.21006367
-0.06030002 0.02440214 -0.04366825 -0.03461451 0.01944676 0.07149898 -0.040184278 0.24026515
-0.17532806 -0.161044 -0.18632083 -0.07325039 0.09489698 -0.12040155 0.061729174 0.0011129264
-0.045007277 0.21744283 -0.049315766 0.22910845 0.1415114 0.16424574 0.21545298 0.024506899
-0.110919274 0.14688773 0.029343259 -0.11100117 0.23357451 -0.09458926 -0.09949166 -0.05655464
-0.20114699 0.18354897 -0.110679746 -0.15350398 -0.17107412 -0.21279334 0.17528081 0.1063476
0.22745323 -0.14181125 -0.17019556 -0.064908296 -0.0923457 -0.14229445 0.20403986 0.22386995
0.24770276 -0.012296956 -0.08545146 0.20421727 0.07393261 0.0059717624 0.15127385 -0.20585802
-0.2231327 0.045066502 0.13184464 0.046460953 0.065369956 -0.034956146 0.1327457 0.045502163
-0.010710502 0.13531601 0.09781356 -0.21620944 0.013966085 0.07276877 0.08163434 -0.14186253
0.003723403 -0.07429442 -0.10667707 0.0897982 0.03407369 -0.049749035 0.21462144 0.059780583
-0.027860738 -0.21952373 0.060610082 0.137985 0.037806116 0.027299695 -0.13146369 -0.040785775
0.106767856 -0.088179395 0.16172093 0.037116114 -0.06979868 -0.036388095 0.10230062 0.05537725
-0.011216739 0.2071678 0.12063624 0.0712055 -0.17960618 -0.15948041 0.13884945 -0.0065057487
0.23354279 -0.08731468 0.027429225 0.06484732 0.13728246 -0.037129313 0.13937044 0.014125073
-0.026268296 -0.2396998 -0.025492292 0.014220284 0.24599297 0.22867572 0.1669227 -0.1642936
0.117671765 0.14705703 -0.021727335 0.06939644 0.21230549 0.0245141 0.1512263 -0.058231898
-0.21924748 0.0067433733 -0.16968367 -0.028001871 0.10805796 0.0892008 0.13177758 -0.16083679
-0.010010734 0.17690967 -0.19639908 0.19508083 0.10360575 0.19201982 0.18525016 -0.19103959
-0.04970295 -0.0032139688 0.019127926 -0.02290646 0.19600815 -0.16192001 0.24802828 -0.14061011
-0.0647879 -0.14255281 0.140492 -0.15348044 0.23119849 0.20544991 0.13954158 0.16743252
-0.06736146 -0.1413072 0.20779106 -0.051174257 0.20229574 -0.023051066 0.21787843 -0.06516533
0.22742988 0.043471936 0.1377788 0.2253434 0.08670548 -0.07351649 0.1004631 -0.07126572
-0.11963288 -0.028041631 -0.012057872 0.11006933 -0.0031121133 -0.18337685 0.13260795 -0.1206984

mlp.dense1.weight f4 [256, 256]
00000000: 7a3a 4fbd c69f 79bd b493 83bc 1080 0fbd
00000010: 96f6 b23c 80de 0c3d 37d4 a33c 96d9 413d
00000020: 61f7 0bbc 0b16 253d 56af 0b3d 2e34 793d
00000030: 2d26 ca3b 0937 613c f7f6 31bd 0b39 efbc
00000040: 5241 1b3d abda 773d ca92 86bd 2dc0 023a
00000050: bddf 35bc 798a 0d3b 1ae8 e8bc 4d6f abbb
00000060: 5491 c5bc 034c 303d e6e9 47bd 8f6c 223d
00000070: 3caf 0dbd 21a5 0bbc c2f4 33bc b89e fcbc
00000080: ed8b 5c3d 6f93 75bd b153 5ebb 0564 f8bc
00000090: e7d5 ddbb a327 6ebd 0d4c 453c 38af af3c
000000a0: 9373 51bd f71a 63bd 5bc1 72bd 1103 4f3d
000000b0: 663f 21bd 4b90 023d 33e6 2dbb 9a7e 003c
000000c0: 026c 063c 9973 8fbc a7d2 38bd d4ea 153d
000000d0: d132 8a3d 1be3 ecbc d46a b93c 91bf 5b3c
000000e0: 0ec9 45bd 4f55 193c 61ed 113d 9df6 9cbc
000000f0: 96d2 283d 9545 393d debd 233d 85f9 1dbc
00000100: d775 b53c fb97 10bb 6c57 6f3d 8391 aebc
00000110: 0e9f e63a f5cf 6d3d 5cc0 42bd 1aa9 6bbd
00000120: 857b 093d 2315 efbc ebf2 1abd cbdc 1abd
00000130: 9c7c e23c c7ba 9dba 15b1 113d 65f4 163d
00000140: e781 bebc ae6c 0c3d d2a1 c3bc 6cf1 7b3c
00000150: 96cf 23bc 95e9 3bbc 73b3 26bd bc84 b9bc
00000160: 2fe7 073d 25fe 7bbd 25ac 7c3d 2a82 453d
00000170: cab0 1c3d 7b29 4dbc 5dc2 36bd 3bf7 7a3d
00000180: 5938 df3b fd36 8f3d ddba 4ebd f05e 103d
00000190: 4682 183d f2b5 853c 0f26 d23c 6248 3dbd
000001a0: d659 843d b0ff 573d ce61 df3c 8f07 823c
000001b0: a6bb 4f3d 445d 3cbb add9 5c3d 0b8e a93c
000001c0: 32e6 8ebc 4207 68bd 197c 8b3c 33a7 debc
000001d0: 2131 efbc fb79 15bd 8296 8a3d 8780 62bc
000001e0: 0a1f 513d f0b8 943c 2be1 95bb 5383 2c3b
000001f0: a371 6e3d 8a03 1d3d de21 483d 8b89 43bd
00000200: 2ee7 42bd 4f45 5dbd ae97 533d edbd 873c
00000210: a493 81bd c57b 203d 1933 813d 1607 41bd
00000220: dc60 b73b 5107 413d 8960 6ebd 9110 5dbb
00000230: 687f b5bc 084f 3bbd 4b0e eb3a abcc 253d
00000240: 15ff 9e3c 4db4 e2bc 4ead c9bc a8fe 84bb
00000250: 3509 0a3d 64be 443d 8550 f33c cbe3 873c
00000260: 52da 563c 6e3b 9a3d 1eca 27bc bba6 c73c
00000270: 6f93 c3bb 114f 5ebc 10da 403d 2de1 0dbd
00000280: cfcd ce3c 41b5 1b3d e7ef 42bd 09b0 773d
00000290: 9b49 1dbd eeb1 96bc 262f a6bc c988 78bd
000002a0: ff53 8d3c fae8 2f3d b56c 1d3d 6100 653c
000002b0: 2c36 3dbd b415 0abc eaeb 2abd 6c4a c0bc
000002c0: cf43 3abd a3c2 363d f144 063c 7f92 b83c
000002d0: dfea 373d 248c 8dbb 6621 12bc 32de 1c3c
000002e0: 6b86 ecbc 7e15 743d 4cd2 5bbc d4de 10bd
000002f0: 1fe5 013d 1f0a fc3c edcf 3fbb 50a0 b2bc
00000300: 09f1 6abd 03c2 39bd 1e1c 803d 1ac5 063d
00000310: f5b1 ffbc 1f42 103d f1bd 963c e12f ad3c
00000320: a36c 3ebd 7b52 463d 748b 08bc ac80 ffbc
00000330: aefe 4f3c 5ae6 213d 9e58 193d 6e45 29bd
00000340: dc2d 8cbc 5897 fbba aa00 1abd ae5a 89bc
00000350: 9e2a 223c 0da2 283d 1eb7 f3bc 988b 37bd
00000360: 4eb2 bcbc b54a f03c b83c 56bd 9cbf b1bc
00000370: 9e14 8abc 6cbc 9ebc 3cd0 c0bc 572a c23c
00000380: a6dd 9ebc b0e4 7cbc cb43 ec3b 7dd1 febc
00000390: 4eb6 4f3d 6943 a73c ab0d 65bd 0378 1bbd
000003a0: b5b4 473c 516b 89bc dc03 f43c b511 983c
000003b0: 737d 2ebc dd9c 893c 79fb b1bb 8352 3e3d
000003c0: 4d4d af3c e757 88bd 866a 54bd 4180 adbb
000003d0: 3d25 1ebb d68e 8dbb 7079 d33c 6338 653d
000003e0: c929 013d 19fd 3a3d 8190 003b 616b 30bc
000003f0: 0a8a 373c 710e e73c 70a1 4bbd 6b44 3ebd
-0.050592877 -0.060943387 -0.016061641 -0.03503424 0.021846097 0.03439188 0.019998653 0.047326647
-0.008542866 0.040304225 0.03410276 0.060840778 0.0061691017 0.013746032 -0.043448415 -0.029202005
0.03790409 0.060511272 -0.065709665 0.0004987743 -0.011100707 0.0021597429 -0.028430987 -0.005231774
-0.02411715 0.04304124 -0.048807047 0.03965431 -0.034590945 -0.0085232565 -0.010983648 -0.030837402
0.05384438 -0.059955057 -0.0033924396 -0.03032113 -0.006769884 -0.05814327 0.012042058 0.021445855
-0.05113561 -0.055445638 -0.05926643 0.050540034 -0.039367102 0.03187589 -0.0026534915 0.007842684
0.008204462 -0.017511176 -0.04512277 0.036600903 0.06747974 -0.028916886 0.022633947 0.013412372
-0.048287444 0.009358718 0.035626773 -0.019160563 0.041216455 0.045232374 0.039975993 -0.00964201
0.022150917 -0.0022063244 0.05843298 -0.02130962 0.0017595009 0.05805965 -0.04754673 -0.057534315
0.033565063 -0.029184883 -0.03782932 -0.03780822 0.027647309 -0.0012033813 0.03556927 0.036854167
-0.023255302 0.034283333 -0.023880873 0.015377384 -0.009998223 -0.0114692645 -0.04069848 -0.0226463
0.03317946 -0.061521668 0.061687607 0.048219837 0.038254537 -0.012522097 -0.044618953 0.061270934
0.006812137 0.0699291 -0.050471175 0.03524679 0.037233613 0.01632211 0.025652913 -0.046211608
0.06462447 0.052734077 0.027268317 0.015872745 0.050716065 -0.0028742114 0.05391853 0.020697614
-0.01744375 -0.056647547 0.017026948 -0.027179336 -0.029198231 -0.036493283 0.06766988 -0.013824589
0.05105499 0.018154591 -0.0045739613 0.0026323393 0.05821384 0.038333453 0.048860423 -0.047738593
-0.04758375 -0.054021176 0.051658325 0.016570056 -0.06326988 0.039180536 0.06308574 -0.0471259
0.0055962633 0.047126118 -0.05819753 -0.0033731798 -0.022155479 -0.045729667 0.0017933337 0.04047839
0.019408742 -0.027673865 -0.02461877 -0.0040586777 0.033700187 0.048033133 0.02970148 0.016588112
0.013113575 0.075308666 -0.01024106 0.024371495 -0.005968503 -0.013568656 0.04708296 -0.034638572
0.025244622 0.038014654 -0.04759207 0.060470615 -0.038400274 -0.01839539 -0.020286154 -0.060677323
0.017251967 0.042946793 0.03843375 0.013977141 -0.04619424 -0.008428026 -0.04172889 -0.023472987
-0.045474824 0.044619214 0.008195148 0.022530792 0.044901725 -0.0043196846 -0.008919096 0.00957446
-0.02887269 0.05959081 -0.013416838 -0.035368755 0.031712648 0.030766545 -0.002926822 -0.021804959
-0.057358775 -0.04535104 0.06255363 0.032902814 -0.031212786 0.035219308 0.018401118 0.021140995
-0.046490323 0.048418503 -0.0083340295 -0.031189285 0.012694998 0.03952632 0.037438028 -0.04132598
-0.017111711 -0.0019194884 -0.03759829 -0.016766872 0.009897856 0.04117017 -0.029750403 -0.04481086
-0.023034241 0.029332498 -0.052304 -0.021697812 -0.016855534 -0.019376956 -0.023536794 0.02370183
-0.0193928 -0.015435383 0.00721023 -0.031105751 0.05071097 0.020417886 -0.055921238 -0.03795625
0.01218908 -0.016774805 0.029786997 0.01856313 -0.010650027 0.016798431 -0.005431589 0.046465408
0.021399165 -0.06657391 -0.0518594 -0.00529483 -0.0024131082 -0.004320006 0.025814742 0.055961978
0.03153399 0.04565153 0.001961738 -0.010767789 0.011202345 0.028205128 -0.049714506 -0.046451967

mlp.dense1.bias f4 [256]
00000000: ddb5 083d 387b 94bb 065c c03c e6f5 44bd
00000010: a712 7bbc 3b6f 3f3d 69cb 0e3d 9329 38bd
00000020: 02ae 843d 8f68 82bc 38ea 30bd c1c4 24bd
00000030: ff15 043d 4ff3 d43c d2f5 393c cf86 63bb
00000040: ed17 213d f94b 94bc 012b 73bd 40ab 833d
00000050: b84c 4c3c 8b18 54bd 9fcf 29bc f81f 3fbc
00000060: b587 31bd 0f48 d4bc ed5c f33c 5d2e 7f3d
00000070: a79b e63c c1a1 c4bc d6cb 603d 6d79 e1bc
00000080: a3ae 533d 56aa b8bc f57c 103d 2423 88bc
00000090: dd5d 87bd d847 5cbd 321f 273d ce9f 1ebd
000000a0: 08a7 d53c 156c d6ba 1a38 59bd 374f d53c
000000b0: 5aa7 5ebd da3c 4bbc 0512 fdbc 6d6d 54bc
000000c0: 76bd ce3c 0337 45bd e9b7 1abd c27b 63bd
000000d0: 534f fabb 41bd 41bc b998 ec3c 9f78 0fbb
000000e0: 360e 703d d752 bebb 75b6 e53c 76ce b53c
000000f0: 9934 fbbb 364e d5bc 98d8 4fbd f0a1 363d
00000100: 7c7b 53bd b2d5 5bbb 6d21 f0bb eb87 0c3d
00000110: ebb8 da3b 9cf9 633c 8471 483d 8d78 c2bc
00000120: 920b 33bd f4cf 9b3c f659 563d c8a0 73bd
00000130: 7e10 c4bc 5bbd 00bd 7065 70bd 9924 24bd
00000140: 796b e2bb 8255 4e3c 7da8 3b3c 6d20 1a3d
00000150: c6ac 59bd 4e6a a1bc 686d 613d 1c43 1ebd
00000160: 0fcd 203d f6f8 2c3c 8c82 8abc 9806 023d
00000170: b79a e13c 9fbd 6d3d d117 12bd 3978 493d
00000180: d455 00bd 8802 3cbb aa86 253d 4e40 393d
00000190: 13e8 56bd 1494 893c e75d 9fbc a9d6 75bc
000001a0: d822 4b3d 608c 22bd 544c 43bb 6abd 0ebd
000001b0: 415d 1b3d 460e 6b3d 88c8 8e3c ead0 c03a
000001c0: c5fd 023d 8480 a9bc d0c7 12bd 82ee da39
000001d0: 6b69 873d 7c35 ab3c c646 6f3c 203e 44bd
000001e0: 47ac db3b 56df 42bd 0055 7dbc 56cc 37bd
000001f0: ef91 7fbd 7077 babc 12c6 4f3c 86a1 9abc
00000200: 9e3a 40bc 7e79 0d3d 7107 ccbc 2232 6cbd
00000210: c77a 243c 426f 2b3d d0d7 b43b 8e7d 6c3d
00000220: 923a 523d 74b8 e13b 9f2a 253d 96a2 793d
00000230: 2f94 e3ba 917a 493d 4840 3f3c 8d66 b5bc
00000240: 5ea9 1f3c a104 493d f665 2e3d bed9 6a3d
00000250: 4745 fabc 7a92 01bd c89b 39ba ae96 09bd
00000260: 66ac 113d 97cf 973c 2fbc 91bb b195 48bd
00000270: 7826 debc addf 773c f28b 7ebc e97a 66bd
00000280: f725 8d3d 9524 813d 5970 25bd ecca 70bd
00000290: 9eb5 b0bc 27b2 81bd 310b e73b f1af 21bd
000002a0: dae2 dcbb 0853 d43c 0bec 813d 7b0a c2bc
000002b0: 3294 0ebd 3293 263d 9372 cc3c 2326 5bba
000002c0: b83d 6f3d bf93 5d3d 30d9 8d3d 050e 663d
000002d0: 7dd2 3dbd 29eb bebc 03e3 2b3c d5f1 9c3c
000002e0: 67ea 5b3b be9e 45bc b3b0 103b 920f 563d
000002f0: 65a8 ac3c 2e4d 693b 5698 0e3d 85e2 34bd
00000300: e774 7ebb 1ec6 81bc fc9b 273d 9b0b 243d
00000310: 7dc5 3f3d 1225 ea3b 015b 3f3d 03cc 7a3c
00000320: 11b7 51bd dada be3c bbac b6bc fdff 15bc
00000330: 01b3 d23c 7848 c43b 1585 a73c dd6a 863d
00000340: b32d 1f3d 8ff6 193c 9850 f6bc a917 81bc
00000350: 5c38 3cbd 7f18 003d fcf6 43bd d4d2 0c3d
00000360: 6c68 17bc 9e92 533d 6018 313b e322 743d
00000370: 580a d63c 1223 06bd 5305 3a3d bdfb 86bd
00000380: 7c5c 3f3d 6bc5 653d 6466 68bd 9ead 063d
00000390: d866 713d a8c0 3d3d 0619 873d 7a8f d83c
000003a0: 9837 f0bc 09fe c1bc 904a 853c f52d 53bd
000003b0: dd15 a4bc 1e99 6ebd ce0c 293d 1cf6 dfbc
000003c0: 8687 b93c 5311 0b3d 9721 cfbc cb2c 243d
000003d0: c8ed 0f3a e0d5 4d3d a94c 283d 5078 2b3c
000003e0: 0500 38bd 1652 533b e821 5ebd ac5e 313d
000003f0: fc80 c93c 6e42 073d 6ded f73c 37ae 473c
0.033376563 -0.0045312904 0.02348138 -0.04808607 -0.015324271 0.046736937 0.034861956 -0.044961523
0.06478502 -0.015918998 -0.04319212 -0.0402267 0.03224754 0.025994925 0.011350112 -0.0034717803
0.039329458 -0.018102633 -0.059367184 0.06429148 0.012469463 -0.05178122 -0.010364442 -0.011665337
-0.04334231 -0.025913266 0.029707396 0.062300075 0.028150393 -0.024002912 0.054881893 -0.02752372
0.05168022 -0.02254216 0.03527542 -0.016618319 -0.066097 -0.053779453 0.040801235 -0.03872662
0.026080623 -0.0016359115 -0.05303202 0.02603875 -0.054358818 -0.012404645 -0.030892381 -0.012965542
0.025236826 -0.048148166 -0.037773047 -0.055537947 -0.0076388507 -0.011824907 0.028881418 -0.0021891964
0.058607303 -0.005808215 0.028041104 0.022193175 -0.0076661822 -0.02603827 -0.05074367 0.04458803
-0.051631436 -0.003354412 -0.0073282034 0.03430931 0.006674876 0.013914492 0.048936382 -0.023739124
-0.043712206 0.019020058 0.052331887 -0.059479505 -0.023933645 -0.031430583 -0.05869049 -0.040073965
-0.0069097844 0.012593629 0.011453745 0.03762858 -0.053143285 -0.01970401 0.05503598 -0.03863822
0.03925806 0.010557404 -0.016907953 0.03174457 0.027539594 0.058042165 -0.035667244 0.04918692
-0.031331852 -0.0028688032 0.04041163 0.04522734 -0.052467417 0.016794242 -0.019453956 -0.015004792
0.049593776 -0.039684653 -0.0029800134 -0.034848608 0.03793073 0.05738666 0.017429605 0.0014710699
0.031980295 -0.020691164 -0.035835087 0.00041757902 0.06611904 0.020899527 0.014604276 -0.04791081
0.0067038867 -0.04757627 -0.01546216 -0.044872604 -0.062395032 -0.02276203 0.012681501 -0.018875849
-0.011732725 0.034539692 -0.024905892 -0.057664998 0.010039038 0.04185415 0.005518891 0.057736926
0.05132539 0.0068884436 0.04032385 0.06094607 -0.0017362888 0.049189154 0.011673041 -0.022143627
0.00974497 0.04907668 0.042577706 0.05733656 -0.030550612 -0.03163383 -0.0007080403 -0.033590965
0.035564803 0.018531604 -0.004447482 -0.04897088 -0.027117953 0.015129012 -0.015536295 -0.05626956
0.06892007 0.063058056 -0.040390346 -0.05878727 -0.021570977 -0.06332808 0.0070508947 -0.03947443
-0.00674091 0.025918499 0.0634385 -0.023686638 -0.0348093 0.04066772 0.024956977 -0.000835987
0.05840847 0.05409598 0.06926191 0.056165714 -0.046343315 -0.023305492 0.0104911355 0.019158283
0.0033556463 -0.012061773 0.0022077977 0.052260943 0.02107639 0.0035598981 0.034813248 -0.04416134
-0.0038827003 -0.01584154 0.040920243 0.04005013 0.0468192 0.0071455324 0.046717647 0.015307429
-0.051199976 0.023297716 -0.022299161 -0.009155271 0.025720121 0.0059900843 0.0204492 0.06563351
0.03886194 0.009397163 -0.030067727 -0.015758352 -0.045952186 0.03127336 -0.047842965 0.03438075
-0.009241205 0.051653497 0.0027022585 0.059603583 0.02612798 -0.03274829 0.045415234 -0.06590984
0.04671906 0.056096476 -0.056738272 0.032880418 0.05893597 0.04632631 0.0659657 0.026435602
-0.029323384 -0.023680704 0.016270906 -0.0515575 -0.020029956 -0.058251493 0.041271977 -0.027339034
0.02264763 0.03395207 -0.025284572 0.04008178 0.0005490449 0.050252795 0.041088734 0.010465696
-0.044921894 0.0032244972 -0.054231554 0.043303177 0.024597637 0.033022337 0.03026458 0.012187532

mlp.dense_final.weight f4 [1, 256]
00000000: d56f bfbc 66a1 53bd e6d9 45bd 7128 3ebd
00000010: a6ed 01bd 9df4 583d aaa9 42bc a886 953c
00000020: 1e45 64bc 7016 48bc 4eed 96bd 9ff4 2fbd
00000030: 68c7 363d 325e 333d 35eb 7ebd 6076 853d
00000040: 282e 343d bc99 21bd 3804 ce3c 5abb 83bd
00000050: 3c72 edbc 69ef 633d 3949 0b3a a1ed 373d
00000060: 4e0c 443d e934 313d eca0 163d 521e 27bd
00000070: 1d1f 21bd b561 9fbc f164 143d 8a5f 57bd
00000080: a6c1 a8bd 21cf a5bd 5368 2f3c 2877 063d
00000090: d9ed 873c 8039 2ebd 5ff6 78bd f636 293d
000000a0: 8278 ea3c e530 52ba be75 2ebd 0da4 ddbb
000000b0: e87e c8bc cc1b 7a3d 3d53 4bbd 9050 3ebd
000000c0: 3fbd b63c ca88 75bc e4db b4bc 822c 38bd
000000d0: 0d75 0abd a87f a2bc 211e 97bc 7fb4 6ebd
000000e0: 3d37 a2bd e4fb 443d b11f 84bd 506c 123d
000000f0: 952a 7a3d 298f 94bc af66 6bbd 79b3 1cbc
00000100: b258 1abc 4d52 23bd 0aa2 efbc 0f14 6ebd
00000110: 4135 58bd 62a7 c9bc 99b2 82bd 742d 613d
00000120: dbe1 163d 8450 233d 0fe2 1c3c e542 7a3d
00000130: df6c 2fbd 1ade 72bd 8196 52bd c9f6 8ebd
00000140: b319 483d 69be 88bd ca73 69bd 51fd 87bd
00000150: 32a4 1fbd 80bc 25bd dcf6 0b3d f160 51bd
00000160: 51c4 423d 1353 293d 10be 9e3c 06fd 963d
00000170: dcc0 81bd 7220 1cbd bc6c 62bd 4d63 553d
00000180: b41a 323d 8398 69bc 99f8 bebc 19e2 6a3d
00000190: 00bf 8abc 942b db3c 00b6 86bd 4066 1cbd
000001a0: 0e10 423d dbe2 34bd 4b11 883b 697d f8bc
000001b0: 9b60 afbc 61cf babc bc28 763d f45c 0ebd
000001c0: 3204 3a3d f219 a13c 0717 153d fcd9 223d
000001d0: 970a 5dbd 4451 5cbd 019a 1d3d c2e5 533d
000001e0: 9943 7abd c0a0 903d 9504 063d 82f0 e8bc
000001f0: 5e6a 413d c2ac a43c 1181 3cbd 7040 873d
00000200: 9b4c 2d3d 0c0b 443d ef4e 04bd 93f1 463d
00000210: 9d45 fabc e99c 5d3d ca4f 1dbd 39f9 49bc
00000220: 7758 8ebc 0eab 323d 0770 d3bc 3ba6 08bc
00000230: bdad 47bc bfea 86bd f779 afbd 12d6 f5bc
00000240: e4ca 06bc 02ff 32bd 8ed0 9d3c 9e2e 4cbd
00000250: aea4 7c3c 47a7 74bd 352a 093d 9c05 c8bb
00000260: 620b 3ebd 9350 30bd b30d 8bbd 7ab7 4c3d
00000270: c10f d73c 0a73 97bd 9902 18bd 268e 9f3c
00000280: affb 81bd 8e9d d5bc 3638 d63c cd0c a93c
00000290: 69fc 86bd 153a 783d 7319 a1bc 947f 68bd
000002a0: 164f 33bd 44f8 6e3d 7de3 e63c dc2d 13bd
000002b0: 21d8 60bb ab23 163d 7d5b a2bc e16a 84bd
000002c0: 171e 3b3c 8212 ef3c 7e59 90bd 08e6 0c3d
000002d0: e4fe f93c 1b99 7fbd 76cc 523d 68ba 84bd
000002e0: c80d 1abd 47c2 60bc e19c 4dbd 3e29 66bd
000002f0: eb1a 0b3c 8c7b 003d b56d 5b3c dd30 a7bd
00000300: dc8c 55bd ae66 00bd ff85 aabc a20c 583d
00000310: 8392 9a3c fc71 4abd 0bc8 87bd 8370 ab3c
00000320: 0948 953d c2dd adbc 172c ff3c a1f0 7dbd
00000330: c8dd 4a3d d7c0 803d 293e 823d d9b3 63bd
00000340: 2f08 793d 1261 10bd 8a77 303d db68 163d
00000350: 1391 853d edff 473d fc27 3dbd 86bc a93d
00000360: 40d9 db3c 13a0 0f3d 76fc 6a3d 9a06 e6bc
00000370: 1148 b8bc 8b5d 12bc 92fc 903d f1f7 5c3d
00000380: 378c 2cbd 5e73 1ebc 293c 273d fc05 34bd
00000390: 3e65 42bd c924 4d3d 298f 3bbd 806b 2d3d
000003a0: 0969 323d f0d9 d53c f7d9 57bd c6c5 883d
000003b0: 30d6 793d 0cf6 0c3d da54 cebc 7679 a8bb
000003c0: da67 5ebd 4284 f63c 2528 7e3c 73f9 b9bc
000003d0: a7b8 5b3d 6150 2f3c 7e5e d4bc 09fd ffbc
000003e0: 1a0a 9abd 8a79 d6bc 8c49 a3bd 8b9e 133d
000003f0: 48e3 ed3c 5d58 643d 1866 35bc bac5 0dbd
-0.023368755 -0.051667593 -0.048303507 -0.046425287 -0.03172078 0.052967656 -0.011881271 0.018252686
-0.013932494 -0.012212381 -0.07369481 -0.0429579 0.044623762 0.043791004 -0.06223603 0.06516719
0.04398933 -0.039453253 0.025148496 -0.06432219 -0.028985135 0.05564824 0.000531334 0.044904355
0.047863297 0.04326335 0.03677456 -0.0408004 -0.039336313 -0.01945577 0.036229078 -0.052581348
-0.082400605 -0.08096147 0.010706025 0.03282848 0.016592907 -0.042535305 -0.060781833 0.04131218
0.028621916 -0.000801815 -0.042592756 -0.006763941 -0.024474576 0.061061665 -0.04963993 -0.04646355
0.022307036 -0.014986226 -0.022077508 -0.04496432 -0.033803035 -0.019836262 -0.018446984 -0.058277603
-0.07920692 0.048091784 -0.06451357 0.035747826 0.061075766 -0.01813467 -0.057470974 -0.009564274
-0.009420561 -0.03987341 -0.029252071 -0.058124598 -0.052785162 -0.024615947 -0.06381721 0.054974988
0.036836486 0.039871708 0.009575381 0.06109895 -0.042828437 -0.059293844 -0.051413063 -0.06980664
0.048852634 -0.06676943 -0.05699519 -0.06640113 -0.03897495 -0.04046297 0.03417097 -0.05111784
0.047550503 0.04133899 0.019377738 0.07372479 -0.06335613 -0.03811688 -0.05527948 0.052096654
0.043482497 -0.014257553 -0.0233119 0.05734453 -0.016936779 0.026754178 -0.065776825 -0.03818345
0.047378592 -0.04416166 0.004152452 -0.030333238 -0.02140837 -0.022803964 0.06009744 -0.034756616
0.045414157 0.019665692 0.036398914 0.039758667 -0.053965177 -0.05378844 0.038476948 0.051732786
-0.061099622 0.07061911 0.032719214 -0.028434996 0.04722058 0.020101909 -0.046021525 0.06604087
0.042309385 0.047862098 -0.03230184 0.048570227 -0.030550772 0.05410472 -0.03840617 -0.012327486
-0.017376168 0.04362016 -0.025810255 -0.008340414 -0.0121874185 -0.06587743 -0.08568185 -0.030009303
-0.008227084 -0.043700226 0.019264486 -0.049849145 0.015420122 -0.05972984 0.033487517 -0.0061041843
-0.046397574 -0.04304559 -0.06789722 0.049979664 0.02625263 -0.07394989 -0.037111852 0.019476961
-0.06346833 -0.026076104 0.02614985 0.020635987 -0.06591112 0.060602266 -0.019665455 -0.056762293
-0.043776594 0.058342233 0.028184647 -0.035932407 -0.003430851 0.03665511 -0.019819016 -0.06465698
0.011420748 0.02918363 -0.07048319 0.034399062 0.03051705 -0.062401872 0.05146452 -0.06480867
-0.0376108 -0.013718194 -0.05019844 -0.056191675 0.008490304 0.031367823 0.013392855 -0.08163617
-0.052136287 -0.031347923 -0.020815847 0.052746423 0.01886869 -0.04942511 -0.06629952 0.020927673
0.0728913 -0.021223906 0.031148953 -0.06199706 0.049527913 0.06286781 0.06359512 -0.055591438
0.06079882 -0.035248823 0.04308275 0.03672109 0.06521811 0.048828054 -0.04618071 0.08287911
0.026836991 0.035064768 0.05736967 -0.02807932 -0.022495301 -0.008933435 0.07079424 0.053947393
-0.042125907 -0.00967106 0.040828858 -0.04395102 -0.047459833 0.05008391 -0.045790825 0.042338848
0.0435572 0.026104897 -0.0526981 0.06678347 0.06099528 0.034414336 -0.025186945 -0.0051414324
-0.05429826 0.030092362 0.015512501 -0.022701954 0.053642895 0.010700316 -0.025923964 -0.031248586
-0.07521458 -0.026181001 -0.07973012 0.03603987 0.02903904 0.055748332 -0.011071704 -0.034612395
